midi_rnn_model.pth (torch, 21135 bytes, 6 tensors)

rnn.weight_ih_l0 f4 [64, 4]
0.06929724 0.10224765 0.1031924 0.2717563 0.32606366 0.22810663 0.8672056 -0.5427304
-0.53592783 -0.4262336 -0.20830142 -0.15680456 -0.09439138 0.057842895 0.07010231 0.20454854
-0.43805033 -0.5155444 -0.4130339 -0.1628235 -0.041882735 -0.0005164872 -0.010495356 -0.19000636
0.08139329 -0.12862739 0.098580465 0.11236164 0.08728216 0.0032915212 -0.01873261 -0.092564166
0.22361828 0.24910073 0.0044068457 0.62519985 0.027127905 -0.03149764 -0.088011034 -0.016375247
0.098618366 -0.093000844 -0.15695988 -0.23245253 -0.23346235 -0.029783707 0.12875082 0.014796594
-0.031278264 -0.020415355 -0.09704766 -0.103447676 0.6250529 0.5506428 -0.003995042 0.078200355
-0.31753117 -0.32360774 0.46282533 0.02210198 0.04285067 -0.1207 0.3705582 0.35253242
0.08101691 -0.054488335 0.038729604 0.03889323 -0.13270141 -0.045825526 0.1372754 -0.030886931
-0.054211818 -0.06578736 0.02819058 -0.012467169 -0.029221538 0.012495248 -0.047536172 0.007840412
0.11441806 0.14430545 0.09675863 0.2934843 -0.71607643 -0.7323443 -0.1781914 0.0985252
0.14117357 -0.091254644 -0.03316156 0.06294753 0.09741799 -0.04075519 0.04145303 0.04380857
-0.032463476 -0.060225192 0.058105797 -0.10025239 -0.13957615 -0.10239056 0.24568248 -0.23366672
0.03093886 -0.037058882 0.1336757 0.03539145 -0.051925395 0.0738048 0.020428808 0.15389325
-0.008166737 -0.059439115 0.20240045 -0.13687128 -0.1846264 -0.20793396 -0.1487363 0.030884387
-0.36958852 -0.1489229 -0.21648988 -0.4608988 -0.055233996 -0.0067009013 -0.032555036 0.045900743
0.090689205 -0.07465411 0.08548585 0.007502841 -0.45635635 -0.508702 -0.03985244 -0.104424
0.02150546 0.027168853 -0.04857298 -0.034229334 0.08857936 0.049290936 -0.008072638 0.017791891
-0.40177315 -0.4338997 0.21079877 -0.050354242 -0.09336306 -0.017183043 0.050928395 -0.01746525
0.0005198023 0.01418368 -0.07744948 -0.11823076 -0.018075421 0.020125957 0.04666239 -0.06995009
-0.002358369 -0.091248065 -0.16550641 0.017456267 -0.02883634 0.011135602 0.007479533 -0.0048967544
0.049474005 -0.08505408 -0.07856201 -0.07540337 0.4235023 0.38775712 -0.018771527 0.49059364
-0.2432648 -0.19011278 0.376421 0.19652939 0.22491795 0.22292794 0.10002293 0.113517895
0.019262085 0.04757035 -0.06604862 -0.069492124 0.056058604 -0.06570126 -0.16534035 -0.0061647254
0.17056148 0.24074844 0.34786907 0.34543967 -0.05546601 0.032343026 -0.07982944 -0.037318915
0.00958467 -0.039448086 0.20360017 0.11118538 -0.14154859 -0.18935037 0.23279297 -0.17067915
-0.015528021 0.05012561 0.07507575 0.09419154 -0.18130358 -0.024762293 0.103650466 -0.16850412
0.095470496 -0.085667506 -0.0068788137 0.09327839 -0.083484255 -0.053230003 -0.022312278 -0.009763285
0.08621724 0.074621364 0.14790398 0.25508773 0.36012444 0.20693578 -0.08062613 -0.74168867
-0.07631374 -0.21415798 0.12357409 0.020005023 0.08202719 -0.115974076 0.14011899 0.2581808
-0.2696874 -0.10339258 0.20980412 0.20928502 0.30634406 0.31090358 -0.9309495 -0.29214963
0.04988053 -0.06259946 0.15109871 -0.033761147 0.019688185 0.039034996 -0.11345361 -0.07155745
00000000: b6eb 8d3d 3767 d13d 8956 d33d a423 8b3e
00000010: d1f1 a63e c994 693e 3001 5e3f 61f0 0abf
00000020: 9132 09bf 4a3b dabe f84c 55be 6091 20be
00000030: 4550 c1bd acec 6c3d cd91 8f3d 2c75 513e
00000040: 2248 e0be b8fa 03bf 2e79 d3be 34bb 26be
00000050: 3b8d 2bbd df64 07ba b7f4 2bbc 0791 42be
00000060: 86b1 a63d e6b6 03be 8ee4 c93d dc1d e63d
00000070: fdc0 b23d 90b6 573b 2175 99bc 4892 bdbd
00000080: 31fc 643e 4314 7f3e 4d67 903b 190d 203f
00000090: 573b de3c ab03 01bd 213f b4bd 6225 86bc
000000a0: 6df8 c93d 3a77 bebd 17ba 20be 0908 6ebe
000000b0: c110 6fbe f6fc f3bc 41d7 033e 6a6d 723c
000000c0: a31d 00bd 1a3e a7bc ecc0 c6bd 60dc d3bd
000000d0: 7803 203f edf6 0c3f d7e8 82bb 8227 a03d
000000e0: 7293 a2be eaaf a5be 71f7 ec3e 360f b53c
000000f0: 2f84 2f3d 9031 f7bd ceb9 bd3e 217f b43e
00000100: 32ec a53d 292f 5fbd efa2 1e3d 824e 1f3d
00000110: e1e2 07be 8cb3 3bbd ec91 0c3e 9706 fdbc
00000120: 360d 5ebd 86bb 86bd eeef e63c 1943 4cbc
00000130: 0262 efbc deb8 4c3c 4ab5 42bd 1275 003c
00000140: 0454 ea3d cfc4 133e 6329 c63d 9343 963e
00000150: c950 37bf eb7a 3bbf ce77 36be 94c7 c93d
00000160: ce8f 103e b7e3 babd 6ad4 07bd a2ea 803d
00000170: 1583 c73d eaee 26bd a7ca 293d 9d70 333d
00000180: 6cf8 04bd b1ae 76bd 5800 6e3d 2051 cdbd
00000190: 0ded 0ebe 24b2 d1bd 3094 7b3e 5446 6fbe
000001a0: 7e73 fd3c 0ecb 17bd 48e2 083e a0f6 103d
000001b0: b9af 54bd f926 973d 515a a73c 3196 1d3e
000001c0: c7cd 05bc 6e76 73bd 1042 4f3e fc27 0cbe
000001d0: b40e 3dbe a4ec 54be 544e 18be 4101 fd3c
000001e0: b53a bdbe 3f7f 18be 86af 5dbe edfa ebbe
000001f0: 0b3d 62bd 3c93 dbbb 6e58 05bd 6b02 3c3d
00000200: 43bb b93d 41e4 98bd 3513 af3d 64da f53b
00000210: 8aa7 e9be 4b3a 02bf 503c 23bd 40dc d5bd
00000220: 382c b03c 3791 de3c 76f4 46bd 0f34 0cbd
00000230: 1869 b53d 4be5 493d 1943 04bc 4dc0 913c
00000240: 36b5 cdbe 1a28 debe a2db 573e 4040 4ebd
00000250: 2235 bfbd 74c3 8cbc 4b9a 503d 4913 8fbc
00000260: 5843 083a aa62 683c d59d 9ebd f822 f2bd
00000270: e812 94bc 31df a43c 1021 3f3d fe41 8fbd
00000280: de8e 1abb 44e0 babd 837a 29be 7200 8f3c
00000290: 303a ecbc 1a72 363c df16 f53b f474 a0bb
000002a0: 41a5 4a3d d530 aebd 1ee5 a0bd 156d 9abd
000002b0: 4bd5 d83e 1a88 c63e bfc6 99bc 172f fb3e
000002c0: 681a 79be edac 42be 41ba c03e 003f 493e
000002d0: e450 663e 3947 643e d2d8 cc3d 127c e83d
000002e0: 85cb 9d3c 21d9 423d 8044 87bd e351 8ebd
000002f0: b59d 653d 628e 86bd fb4e 29be 7701 cabb
00000300: aba7 2e3e c286 763e e51b b23e 78dd b03e
00000310: 5430 63bd 1f7a 043d 9e7d a3bd b8db 18bd
00000320: 0509 1d3c 5194 21bd 907c 503e 29b5 e33d
00000330: 1df2 10be 10e5 41be 4861 6e3e 84c6 2ebe
00000340: 3e69 7ebc 8350 4d3d 51c1 993d 7ee7 c03d
00000350: a5a7 39be 4bda cabc b246 d43d 588c 2cbe
00000360: 0986 c33d 7272 afbd ac67 e1bb be08 bf3d
00000370: cbf9 aabd b407 5abd 3dc8 b6bc 2ff6 1fbc
00000380: aa92 b03d 16d3 983d 2474 173e dc9a 823e
00000390: 3b62 b83e f9e6 533e 501f a5bd 4fdf 3dbf
000003a0: 614a 9cbd 3b4c 5bbe 6a14 fd3d 93e1 a33c
000003b0: dffd a73d d183 edbd 5a7b 0f3e 4630 843e
000003c0: 7814 8abe 7dbf d3bd e4d6 563e d04e 563e
000003d0: 21d9 9c3e c12e 9f3e b552 6ebf a394 95be
000003e0: 874f 4c3d 2534 80bd 9fb9 1a3e 2149 0abd
000003f0: 1e49 a13c 29e3 1f3d 5e5a e8bd b68c 92bd

rnn.weight_hh_l0 f4 [64, 64]
-0.451442 0.05966342 -0.005276053 -0.044811647 0.025435217 0.075695485 -0.09513441 0.14057434
-0.07158395 -0.0019603537 0.022499815 -0.01573414 -0.009085877 0.030551555 0.02367289 0.05620013
-0.02197036 0.09775517 -0.05834772 0.0027518738 -0.0103174625 0.096911415 0.021737576 0.028087823
0.017303491 0.14005823 0.030529022 -0.036351614 0.063951075 -0.05263579 -0.07357513 0.16252083
-0.06283904 -0.0481424 -0.043554198 -0.04075578 0.097153686 -0.036826916 0.035598084 -0.03345566
0.11397723 0.11858986 -0.0069797435 0.015199253 0.007324699 0.11502547 -0.029730424 0.06598253
-0.15826729 -0.009864735 0.05154112 -0.06398425 -0.04277461 -0.027694924 -0.007678703 0.03804362
0.0238957 0.052189805 -0.0848317 -0.06941136 0.05606702 0.059978668 -0.013013669 0.03713917
0.033165745 0.47797087 -0.08593057 0.012493117 -0.11964513 0.012300686 0.0002571179 -0.0012684232
-0.28442246 0.048691876 -0.0126988925 -0.00710552 -0.021928972 -0.16956563 0.15324445 0.11163997
-0.012782887 -0.0473888 0.021924155 -0.010850455 0.012861262 0.10657784 0.010426359 -0.003519879
-0.021401627 -0.052380674 -0.0048531992 0.0360118 -0.0041543664 0.11363743 0.011064892 -0.015906107
-0.017590683 0.22471395 0.017305998 -0.00459588 0.054746293 -0.027101973 -0.0034630357 0.0061024036
0.026580743 -0.015319271 0.011843042 -0.10923922 0.08660693 0.0071278615 0.038093667 0.022853442
0.08588806 0.0026219576 0.017285982 0.009839119 0.04080222 -0.02845768 0.02777091 -0.027733559
-0.017605029 -0.10199142 -0.024731982 0.029096272 -0.037491795 -0.046198003 -0.01730076 0.011979393
0.05518441 -0.013366652 -0.34309104 0.08598014 -0.16564819 -0.103047855 0.011363264 0.051032826
0.041668415 0.0008535563 0.052734982 -0.01315245 0.01502547 0.039429553 -0.02995989 0.04345048
0.04737283 0.048040453 0.020036994 0.019071313 -0.015818754 -0.39126334 0.048252832 0.06336437
-0.010653757 -0.009744217 0.08066198 0.040537838 -0.11029885 -0.28468716 0.15623534 -0.008820284
-0.04095322 -0.13696347 0.032315962 0.027422842 -0.18978019 0.09467634 -0.045390822 0.118239105
0.056489468 0.07571578 -0.00041191682 -0.22715868 -0.094189845 0.10685844 0.093431935 0.02964047
-0.072432324 0.016817376 0.03923363 -0.099117786 0.1060822 -0.054640383 0.012073151 -0.036743797
-0.001168115 -0.02407905 0.011266818 0.05389036 0.074344225 -0.028541975 0.035522055 -0.02170477
0.05951958 0.048224464 0.026492408 -0.5142536 0.113442205 -0.075931735 0.009064379 0.040362623
-0.14321294 0.030752996 0.07397952 -0.08277929 -0.03940732 0.1106625 0.03071838 -0.12543225
0.10579438 -0.102977365 0.15752518 0.008603027 -0.07668364 0.033909716 0.0033790146 0.041548368
-0.0040605506 -0.096980155 0.12079206 0.041314084 0.10508011 0.021085342 -0.11164911 -0.11466395
0.06832072 -0.04721731 0.075658046 0.13499272 0.07189225 0.17122532 0.10586525 -0.101373024
-0.030457437 0.09472196 0.05680726 -0.028286422 0.058365107 0.17971131 0.021666188 0.0004120152
0.05608084 0.07980408 0.15693277 -0.0054971613 0.025940506 0.005936231 -0.14916189 -0.000916121
-0.02121787 0.004265699 0.056211997 -0.07853961 -0.038556315 0.0002826927 -0.04564635 0.050693948
00000000: 6823 e7be a161 743d bee2 acbb 6b8c 37bd
00000010: 845d d03c 3c06 9b3d d4d5 c2bd b8f2 0f3e
00000020: 9b9a 92bd 4779 00bb 8851 b83c e2e4 80bc
00000030: eedc 14bc 4147 fa3c a6ed c13c 1c32 663d
00000040: 2ffb b3bc dd33 c83d 05fe 6ebd c858 343b
00000050: 930a 29bc 7e79 c63d 0013 b23c 6f18 e63c
00000060: 0dc0 8d3c 6d6b 0f3e 0018 fa3c 6ee5 14bd
00000070: c8f8 823d a098 57bd 8fae 96bd dc6b 263e
00000080: c1b1 80bd f730 45bd e365 32bd 88ef 26bd
00000090: 83f8 c63d d2d7 16bd 4ccf 113d cd08 09bd
000000a0: e56c e93d 3edf f23d 55b6 e4bb 4a06 793c
000000b0: 0704 f03b 7992 eb3d 388d f3bc d921 873d
000000c0: d210 22be b39f 21bc c81c 533d 2d0a 83bd
000000d0: 6e34 2fbd 77e0 e2bc a19d fbbb a0d3 1b3d
000000e0: eac0 c33c fac4 553d 3ebc adbd 8b27 8ebd
000000f0: 88a6 653d 31ac 753d 4937 55bc 3e1f 183d
00000100: ced8 073d 99b8 f43e 5efc afbd eeaf 4c3c
00000110: 8208 f5bd d188 493c c8cd 8639 3841 a6ba
00000120: d29f 91be 2271 473d 040f 50bc 6cd5 e8bb
00000130: 63a4 b3bc 9da2 2dbe 1dec 1c3e 7fa3 e43d
00000140: 506f 51bc c21a 42bd 499a b33c 1bc6 31bc
00000150: 0bb8 523c 7c45 da3d 52d3 2a3c c5ad 66bb
00000160: 7752 afbc 1e8d 56bd 9607 9fbb 1c81 133d
00000170: 5a21 88bb beba e83d 8549 353c 864d 82bc
00000180: 561a 90bc 6a1b 663e 4fc5 8d3c 0999 96bb
00000190: a63d 603d f504 debc 19f4 62bb acf6 c73b
000001a0: dcbf d93c aefd 7abc 5209 423c d0b8 dfbd
000001b0: f95e b13d d690 e93b 1b08 1c3d 2437 bb3c
000001c0: 14e6 af3d 26d5 2b3b 559b 8d3c 4234 213c
000001d0: 3b20 273d 1520 e9bc d27f e33c 7d31 e3bc
000001e0: 6c38 90bc e1e0 d0bd ba9a cabc 4e5b ee3c
000001f0: ff90 19bd 1e3a 3dbd 53ba 8dbc 3745 443c
00000200: 0c09 623d cdff 5abc a1a9 afbe 5b16 b03d
00000210: ae9f 29be c10a d3bd fc2c 3a3c cc07 513d
00000220: 80ac 2a3d 32c1 5f3a a300 583d 607d 57bc
00000230: 642d 763c e280 213d 716e f5bc 21f9 313d
00000240: 030a 423d 11c6 443d 9f24 a43c 713b 9c3c
00000250: 5596 81bc ab53 c8be c3a4 453d 2ec5 813d
00000260: 188d 2ebc 35a6 1fbc 1c32 a53d 010b 263d
00000270: 5de4 e1bd 84c2 91be 28fc 1f3e f482 10bc
00000280: 90be 27bd 2740 0cbe be5d 043d dea5 e03c
00000290: bd55 42be abe5 c13d baeb 39bd 5827 f23d
000002a0: 8061 673d e010 9b3d 8af6 d7b9 499c 68be
000002b0: 9be6 c0bd 99d8 da3d 3e59 bf3d 92d0 f23c
000002c0: 6657 94bd 98c4 893c 71b3 203d 44fe cabd
000002d0: a041 d93d 98ce 5fbd 77ce 453c aa80 16bd
000002e0: 6f1b 99ba 6e41 c5bc 7698 383c 23bc 5c3d
000002f0: c941 983d dcd0 e9bc 937f 113d 34ce b1bc
00000300: ceca 733d 0487 453d 9b06 d93c 20a6 03bf
00000310: 6354 e83d 1982 9bbd c382 143c 4753 253d
00000320: 6aa6 12be b5ed fb3c 9382 973d 3088 a9bd
00000330: 9269 21bd 05a3 e23d 1da5 fb3c 5071 00be
00000340: b9aa d83d cce5 d2bd 484e 213e b6f3 0c3c
00000350: 500c 9dbd eae4 0a3d 7572 5d3b 9f2e 2a3d
00000360: 5e0e 85bb 889d c6bd d461 f73d f538 293d
00000370: 3e34 d73d 2bbb ac3c 4aa8 e4bd efd4 eabd
00000380: bceb 8b3d f066 41bd 9bf2 9a3d 883b 0a3e
00000390: 3e3c 933d b155 2f3e e1cf d83d a99c cfbd
000003a0: e081 f9bc 96fd c13d bbae 683d edb8 e7bc
000003b0: 4010 6f3d 3e06 383e 4a7d b13c be03 d839
000003c0: 06b5 653d 5270 a33d fcb2 203e 8821 b4bb
000003d0: 2f81 d43c b784 c23b e5bd 18be d727 70ba
000003e0: 19d1 adbc 47c7 8b3b 8d3e 663d 60d9 a0bd
000003f0: 3aed 1dbd 5f36 9439 abf7 3abd 75a4 4f3d

rnn.bias_ih_l0 f4 [64]
-0.17726414 -0.030424742 0.37857002 -0.029904595 0.36317545 0.12556049 -0.037678592 0.1440658
-0.34001675 0.04679987 0.19781636 0.062597364 0.116819166 -0.31276667 -0.0085468255 -0.15114726
-0.060671665 0.005562262 0.061828118 0.009253135 -0.22899066 0.36001244 0.07214062 0.027808093
0.032198068 0.12287899 0.025873218 -0.115552835 0.063363604 0.074815415 0.38471413 0.024073392
0.06914349 0.3228127 0.03654591 -0.06865357 0.20235138 0.049475357 0.014484129 0.066790864
-0.031125495 0.055643026 0.09096281 -0.36786613 -0.041571744 -0.15523551 0.036803078 0.10936533
-0.34943032 -0.019250875 -0.10584279 0.03398399 -0.06468429 0.072788745 0.018866286 0.036253773
-0.19880986 0.18237503 -0.02808862 -0.081648305 0.05060664 0.16786145 -0.002449617 0.09177917
00000000: bb84 35be 4f3d f9bc eed3 c13e 7bfa f4bc
00000010: 22f2 b93e ee92 003e de54 1abd fc85 133e
00000020: ad16 aebe 38b1 3f3d 5f90 4a3e 0c33 803d
00000030: e33e ef3d f422 a0be fc07 0cbc 59c6 1abe
00000040: da82 78bd a343 b63b 7b3f 7d3d 769a 173c
00000050: 877c 6abe 8d53 b83e 76be 933d cccd e33c
00000060: 1fe2 033d fba7 fb3d 12f4 d33c f7a6 ecbd
00000070: c7c4 813d d338 993d 40f9 c43e 9035 c53c
00000080: 1a9b 8d3d b547 a53e 2ab1 153d 3e9a 8cbd
00000090: 3335 4f3e aca6 4a3d d74e 6d3c a6c9 883d
000000a0: e5fa febc f1e9 633d b64a ba3d f358 bcbe
000000b0: 2247 2abd 0ff6 1ebe d3be 163d eefa df3d
000000c0: 88e8 b2be 03b4 9dbc 1bc4 d8bd cc32 0b3d
000000d0: 3279 84bd 4412 953d 788d 9a3c d67e 143d
000000e0: d094 4bbe 85c0 3a3e 1b1a e6bc 3a37 a7bd
000000f0: e848 4f3d dfe3 2b3e c189 20bb b8f6 bb3d

rnn.bias_hh_l0 f4 [64]
-0.15043876 -0.010252025 0.2157758 -0.13792117 0.34066653 0.04522462 -0.09499001 -0.09433008
-0.29590988 -0.003010656 0.051750623 0.017292844 0.05475141 -0.33793524 0.0030070406 -0.21622239
-0.038583856 0.0338102 -0.017369827 -0.02468587 -0.1539619 0.304194 -0.10146883 -0.090539075
0.08709952 0.05263529 -0.109464265 -0.028659798 -0.023741424 0.1549331 0.28929752 0.0073613855
-0.100019306 0.24056476 0.026523415 0.0065943766 0.14764503 -0.013327127 0.11854674 0.0013976514
0.101036936 -0.010238885 0.04796924 -0.37502873 -0.028914234 -0.16783416 0.04461211 0.0010861924
-0.29280153 0.07486408 -0.05908708 0.16186586 -0.053762425 0.15554808 -0.047669765 0.085573986
-0.14033483 0.09333187 0.104084544 -0.15544772 -0.13546838 0.16363725 -0.0072486615 -0.05700191
00000000: 9e0c 1abe 1cf8 27bc 55f4 5c3e 353b 0dbe
00000010: d86b ae3e 733d 393d 1f8a c2bd 2130 c1bd
00000020: 8081 97be 6d4e 45bb 76f8 533d b9a9 8d3c
00000030: 0443 603d d905 adbe c511 453b 6769 5dbe
00000040: 1b0a 1ebd 907c 0a3d 2b4b 8ebc 063a cabc
00000050: 30a8 1dbe 51bf 9b3e e4ce cfbd 8d6c b9bd
00000060: 3c61 b23d 1a98 573d cd2e e0bd f4c7 eabc
00000070: 607d c2bc c8a6 1e3e ce1e 943e c737 f13b
00000080: ecd6 ccbd 9c56 763e a247 d93c a415 d83b
00000090: 4230 173e 065a 5abc a2c8 f23d 6631 b73a
000000a0: 74ec ce3d ffc0 27bc 657b 443d c403 c0be
000000b0: 8bdd ecbc b8dc 2bbe 30bb 363d 925e 8e3a
000000c0: 15ea 95be 5752 993d 4b05 72bd 2ac0 253e
000000d0: fd35 5cbd ff47 1f3e 5f41 43bd 6a41 af3d
000000e0: efb3 0fbe c824 bf3d 472a d53d b02d 1fbe
000000f0: 39b8 0abe 8690 273e 2e86 edbb d67a 69bd

fc.weight f4 [4, 64]
-0.0078090853 0.0024296395 0.016997283 0.017731352 0.069939755 0.017148687 0.017880477 -0.01537971
-0.00032647362 -0.0036339443 -0.01112556 0.0026865012 -0.008222426 0.059312083 -0.15392525 0.010449255
0.005563109 0.01099547 0.0016710882 0.01183233 -0.006258986 -0.18732461 0.0073683807 -0.005556838
-0.0056602266 0.008844297 -0.0009890796 0.007985932 0.008915575 0.041619394 -0.08558914 -0.002666919
-0.008921853 -0.23174493 -0.021058183 -0.01489548 0.054147314 -0.012114525 -0.016158488 0.0038759357
0.011372104 0.005602305 0.0059937593 -0.011680608 0.04338799 -0.007270796 0.0062415646 -0.021271076
0.002752635 -0.021783937 -0.0063984892 -0.002299985 0.010939782 -0.005302162 -0.00053965853 -0.017986996
-0.005818586 0.048451565 0.009929024 0.016956938 -0.02175071 -0.022578573 -0.0017641855 -0.00889261
0.008852849 0.022617163 0.0062915105 0.007866326 0.077813156 0.0048007187 0.011728751 -0.000777018
0.0530788 -0.0031515977 -0.022196291 -0.0011206223 -0.013065424 0.0071737505 -0.14817332 0.008437747
0.011042616 0.007952544 -0.007902436 0.014607464 -0.0047368193 -0.18348038 0.006606207 -0.006706198
-0.007832664 0.004939275 -0.009922107 0.0006313794 0.0032468012 0.040672902 -0.07550646 0.0044267373
0.0018000375 -0.23307684 -0.0018725011 -0.011854319 0.026897019 -0.007940436 -0.015742835 0.0031664965
0.0040118843 0.01369756 0.0045873565 -0.018797137 0.036692243 -0.017090391 -0.0050210864 -0.015480802
-0.010669721 0.004105453 0.000438249 0.004752997 0.01085718 0.0056982883 0.0014539775 -0.007636322
0.0011690087 0.07070413 0.014519776 0.034918196 -0.0035406365 -0.011482862 0.017005887 -0.0048479554
-0.0007502317 0.12797616 -0.018523078 0.007856409 0.038335565 0.0046602306 0.0074265427 0.0034919567
-0.024122393 0.012026327 0.0032794117 -0.013750883 0.02523312 0.011808917 0.08349712 -0.0045282645
-0.0017130924 -0.003300868 0.002874347 -0.029295476 0.0107462965 -0.07003912 0.00076916517 -0.023367396
-0.008100843 -0.033900917 0.0045851734 0.0019409484 -0.018182097 0.014705268 -0.025746843 -0.017443923
-0.027662763 -0.08916638 -0.0026764472 -0.008284175 -0.04905264 0.017448813 -0.00042507058 0.009609793
-0.011073195 -0.009550666 0.008736064 0.016313042 0.0025878777 -0.004165036 -0.0055242763 0.0032468862
-0.073699735 -0.0065338733 0.016712358 -0.010551857 -0.013143179 -0.0013644454 0.0011611609 0.014931246
0.017395206 -0.062903926 0.0016153022 0.025590561 -0.0034744826 -0.18067 -0.0055861454 0.018809643
-0.0060318294 -0.09650596 0.019653354 0.0058492464 -0.03072167 -0.012698582 -0.019042747 -0.005002812
0.1647285 -0.0025823023 0.0049047843 -0.0055901883 0.009298911 0.051157705 -0.10242586 -0.028373063
-0.032264147 -0.018366441 0.017621025 -0.02251947 0.0014333389 0.031937234 0.0007481589 0.013165148
0.011421008 0.013224862 -0.007064275 0.0051446785 -0.017727647 -0.006545236 0.042138655 -0.013157982
-0.008446901 0.010075849 0.014149679 0.0045782095 -0.015018109 -0.002825136 0.0039901556 0.0001995028
0.0053720986 -0.007689745 0.026971057 -0.08922333 -0.023127437 0.012754823 0.02383247 0.009899632
0.022417698 0.0005414986 -0.004801815 -0.004719992 -0.006587736 0.008658539 0.003679066 0.010260822
0.012484239 -0.084071636 0.0038450405 0.0006598498 -0.005410553 -0.1846425 -0.009536478 0.0038270243
00000000: 5be3 ffbb 963a 1f3b e33d 8b3c 5741 913c
00000010: 933c 8f3d 677b 8c3c 147a 923c 2efb 7bbc
00000020: 8c2a abb9 7827 6ebb fb47 36bc 0310 303b
00000030: 5bb7 06bc 3af1 723d 959e 1dbe 5a33 2b3c
00000040: be4a b63b 5826 343c 6a08 db3a 64dc 413c
00000050: 2e18 cdbb 06d2 3fbe 7572 f13b 2316 b6bb
00000060: 6c79 b9bb ace7 103c 01a4 81ba 6dd7 023c
00000070: a212 123c 1979 2a3d 5c49 afbd 7ac7 2ebb
00000080: f72c 12bc 8b4e 6dbe 3682 acbc 2c0c 74bc
00000090: 93c9 5d3d 007c 46bc ce5e 84bc 6903 7e3b
000000a0: 1052 3a3c 8a93 b73b 4c67 c43b 0560 3fbc
000000b0: 9bb7 313d dc3f eebb 0a86 cc3b ae40 aebc
000000c0: 8d65 343b 3a74 b2bc 6baa d1bb 58bb 16bb
000000d0: c53c 333c c2bd adbb df77 0dba 7759 93bc
000000e0: d6a9 bebb 2675 463d 58ad 223c 47e9 8a3c
000000f0: 8c2e b2bc b3f6 b8bc 3e3c e7ba 4fb2 11bc
00000100: 8a0b 113c a147 b93c 0429 ce3b c3e1 003c
00000110: 815c 9f3d 594f 9d3b f229 403c ccb0 4bba
00000120: 2869 593d 098b 4ebb ffd4 b5bc d8e1 92ba
00000130: 5c10 56bc c811 eb3b bfba 17be 7a3e 0a3c
00000140: 17ec 343c 634b 023c 3879 01bc 2554 6f3c
00000150: 5237 9bbb 48e2 3bbe e278 d83b abbf dbbb
00000160: 9354 00bc a4d9 a13b 5590 22bc 2783 253a
00000170: 49c8 543b a198 263d 22a3 9abd 2a0e 913b
00000180: 3cef eb3a b2ab 6ebe b66e f5ba 9e38 42bc
00000190: 2357 dc3c 9a18 02bc 1ef7 80bc ff84 4f3b
000001a0: 2076 833b bb6b 603c 8951 963b 74fc 99bc
000001b0: 9b4a 163d 2601 8cbc ed87 a4bb 31a3 7dbc
000001c0: 0ed0 2ebc 0987 863b c9c4 e539 07bf 9b3b
000001d0: 50e2 313c b5b8 ba3b 6493 be3a 1d3a fabb
000001e0: 6c39 993a 54cd 903d 5be4 6d3c 6206 0f3d
000001f0: 060a 68bb 9d22 3cbc ee4f 8b3c 99db 9ebb
00000200: 32ab 44ba 2f0c 033e b6bd 97bc 2bb8 003c
00000210: c105 1d3d d9b4 983b 5b5a f33b 50d9 643b
00000220: 539c c5bc 120a 453c 66eb 563b 624b 61bc
00000230: b0b5 ce3c 307a 413c 8a00 ab3d d661 94bb
00000240: d889 e0ba 6053 58bb 8a5f 3c3b 11fd efbc
00000250: 3c11 303c ac70 8fbd cda1 493a fb6c bfbc
00000260: 66b9 04bc b0db 0abd 393f 963b 6c67 fe3a
00000270: 9ff2 94bc 5dee 703c 0beb d2bc 8fe6 8ebc
00000280: 059d e2bc dd9c b6bd 5567 2fbb 59ba 07bc
00000290: 6ceb 48bd d0f0 8e3c 02dc deb9 6572 1d3c
000002a0: 596c 35bc 667a 1cbc b521 0f3c eea2 853c
000002b0: 6299 293b db7a 88bb fd04 b5bb b6c9 543b
000002c0: e3ef 96bd 1a1a d6bb 5be8 883c b2e1 2cbc
000002d0: 7d56 57bc 31d7 b2ba 1832 983a 2fa2 743c
000002e0: 6480 8e3c c6d3 80bd 8cb8 d33a 4ca3 d13c
000002f0: 25b4 63bb 8e01 39be fc0b b7bb ae16 9a3c
00000300: a7a6 c5bb eba4 c5bd 1200 a13c 09ab bf3b
00000310: 03ac fbbc b70d 50bc 89ff 9bbc a1ee a3bb
00000320: 97ae 283e d83b 29bb 50b8 a03b e62d b7bb
00000330: 765a 183c be8a 513d a6c4 d1bd a06e e8bc
00000340: 6927 04bd 3875 96bc f859 903c c07a b8bc
00000350: dfde bb3a 9ed0 023d 1820 443a a2b2 573c
00000360: 2e1f 3b3c 17ad 583c 6f7b e7bb b194 a83b
00000370: 9239 91bc 6b79 d6bb 9599 2c3d 9494 57bc
00000380: df64 0abc 2c15 253c 0ed4 673c ce04 963b
00000390: 840e 76bc eb25 39bb dabf 823b a031 5139
000003a0: 6e08 b03b 42fa fbbb 68f2 dc3c b9ba b6bd
000003b0: c075 bdbc 9bf9 503c 503c c33c 1132 223c
000003c0: 52a5 b73c 5bf3 0d3a 8b58 9dbb 2aaa 9abb
000003d0: efdd d7bb 8bdc 0d3c 7c1c 713b 021d 283c
000003e0: b28a 4c3c c02d acbd 13fd 7b3b c5f9 2c3a
000003f0: 024b b1bb ec12 3dbe e33e 1cbc d0ce 7a3b

fc.bias f4 [4]
0.4464846 0.43572998 0.38526165 0.8036707
00000000: a199 e43e 0018 df3e 0441 c53e 5dbd 4d3f
